2022-05-17 03:03:16,478  - INFO - Computation device: cpu

2022-05-17 03:03:17,377  - INFO - Running Model
: MulticlassSimpleClassification(
  (layer1): Linear(in_features=4, out_features=256, bias=True)
  (layer2): Linear(in_features=256, out_features=128, bias=True)
  (layer3): Linear(in_features=128, out_features=64, bias=True)
  (out): Linear(in_features=64, out_features=3, bias=True)
)
2022-05-17 03:03:17,378  - INFO - 42,627 total parameters.
2022-05-17 03:03:17,378  - INFO - 42,627 training parameters.
2022-05-17 03:04:46,805  - INFO - Computation device: cpu

2022-05-17 03:04:47,361  - INFO - Running Model
: MulticlassSimpleClassification(
  (layer1): Linear(in_features=4, out_features=256, bias=True)
  (layer2): Linear(in_features=256, out_features=128, bias=True)
  (layer3): Linear(in_features=128, out_features=64, bias=True)
  (out): Linear(in_features=64, out_features=3, bias=True)
)
2022-05-17 03:04:47,361  - INFO - 42,627 total parameters.
2022-05-17 03:04:47,361  - INFO - 42,627 training parameters.
2022-05-17 03:04:55,556  - INFO - Epoch [200/4000],  Loss: 0.7991  Accuracy: 0.7546 
2022-05-17 03:05:03,448  - INFO - Epoch [400/4000],  Loss: 0.7447  Accuracy: 0.8111 
2022-05-17 03:05:11,354  - INFO - Epoch [600/4000],  Loss: 0.6909  Accuracy: 0.8631 
…
2022-05-17 03:17:55,731  - INFO - Epoch [2800/4000],  Loss: 0.6438  Accuracy: 0.9107 
2022-05-17 03:17:59,417  - INFO - Epoch [3000/4000],  Loss: 0.6429  Accuracy: 0.9101 
2022-05-17 03:18:03,257  - INFO - Epoch [3200/4000],  Loss: 0.6415  Accuracy: 0.9113 
2022-05-17 03:18:06,982  - INFO - Epoch [3400/4000],  Loss: 0.6399  Accuracy: 0.9119 
2022-05-17 03:18:08,006  - INFO - Finish training model 

2022-05-17 03:18:11,100  - INFO - Computation device: cpu
2022-05-17 03:18:51,587  - INFO - Computation device: cpu

2022-05-17 03:18:52,105  - INFO - Running Model
: MulticlassSimpleClassification(
  (layer1): Linear(in_features=4, out_features=512, bias=True)
  (layer2): Linear(in_features=512, out_features=128, bias=True)
  (layer3): Linear(in_features=128, out_features=64, bias=True)
  (out): Linear(in_features=128, out_features=3, bias=True)
)
2022-05-17 03:18:52,105  - INFO - 76,867 total parameters.
2022-05-17 03:18:52,106  - INFO - 76,867 training parameters.
2022-05-17 03:19:07,598  - INFO - Computation device: cpu

2022-05-17 03:19:08,110  - INFO - Running Model
: MulticlassSimpleClassification(
  (layer1): Linear(in_features=4, out_features=512, bias=True)
  (layer2): Linear(in_features=512, out_features=128, bias=True)
  (layer3): Linear(in_features=128, out_features=64, bias=True)
  (out): Linear(in_features=128, out_features=3, bias=True)
)
2022-05-17 03:19:08,111  - INFO - 76,867 total parameters.
2022-05-17 03:19:08,111  - INFO - 76,867 training parameters.
2022-05-17 03:19:31,093  - INFO - Computation device: cpu

2022-05-17 03:19:31,829  - INFO - Running Model
: MulticlassSimpleClassification(
  (layer1): Linear(in_features=4, out_features=512, bias=True)
  (layer2): Linear(in_features=512, out_features=128, bias=True)
  (layer3): Linear(in_features=128, out_features=64, bias=True)
  (out): Linear(in_features=64, out_features=3, bias=True)
)
2022-05-17 03:19:31,829  - INFO - 76,675 total parameters.
2022-05-17 03:19:31,829  - INFO - 76,675 training parameters.
2022-05-17 03:19:43,822  - INFO - Epoch [200/4000],  Loss: 0.7871  Accuracy: 0.7683 
2022-05-17 03:19:54,344  - INFO - Epoch [400/4000],  Loss: 0.7588  Accuracy: 0.7901 
2022-05-17 03:20:04,901  - INFO - Epoch [600/4000],  Loss: 0.6872  Accuracy: 0.8657 
…
